src/rubert-tiny2/tinybert-ru-labse-adapter-v2.pt (torch, 962983 bytes, 2 tensors)

weight f4 [768, 312]
000000 82 af 7b bc 9d e1 04 3d 75 32 5f bd 45 ae 8b 3c
       -0.015361669 0.032441724 -0.05449148 0.017050872
000010 ce 5e b3 bc 9a f9 1d bd 56 1b 01 bd 10 eb 27 3d
       -0.021895792 -0.038568117 -0.03152021 0.040995657
000020 c1 9f 48 3d ba d7 4f 3d ea c5 3a 3d a5 2a fc 3c
       0.04898048 0.050742842 0.0455989 0.030782053
000030 5b ad 07 bd bb b2 a9 bc f7 39 f6 38 4f 21 05 bc
       -0.03312431 -0.020715108 0.00011740991 -0.008125617
000040 c8 e8 24 3c 80 48 24 bb 5e d8 dc bc 57 d4 0b bd
       0.010065265 -0.0025067627 -0.02695864 -0.03413805
000050 7f 7a 8f bd 96 7d 87 3c 09 11 a5 bc c5 66 7b bd
       -0.07005786 0.016539376 -0.020149725 -0.061377306
000060 91 b0 b2 3c 3f 05 8b bc ec 87 37 ba 24 f6 02 bd
       0.021812709 -0.016970275 -0.000700115 -0.03197302
000070 c3 18 af bc 13 ac 61 bc ac 45 aa bb 0c a2 9a bd
       -0.021374112 -0.013773936 -0.005196294 -0.07550439
000080 2f 0d 3f 3b 9a 76 9e bd a4 26 a3 bc bf bf 0c 3c
       0.0029152145 -0.07737465 -0.019915886 0.008590638
000090 ec 59 25 3d 9b c8 37 bd 4e da 40 bc 04 02 87 3c
       0.04036896 -0.044869047 -0.011770798 0.016480453
0000a0 b4 39 7d 3c b3 34 00 3d d2 f8 21 3c 04 8e 79 3b
       0.015455652 0.031300258 0.009885984 0.0038079033
0000b0 84 6b 88 bc 73 03 27 3d 75 fd 26 3d 4b 70 95 3c
       -0.01665283 0.040774774 0.04076906 0.018242022
0000c0 2f 76 30 bd 42 fc f6 3c be d6 13 3d 5a cb 42 bc
       -0.04308146 0.030149583 0.036093466 -0.011889303
0000d0 c4 0e 9b bb 7c d7 14 3d 15 15 15 3d c4 a4 35 bd
       -0.004731985 0.036338314 0.03639706 -0.044346586
0000e0 9f ca cf bc 02 ee a1 3c a2 af 93 bc f7 2c 2f bd
       -0.025365172 0.019766811 -0.018028084 -0.04276749
0000f0 ab 8d 4f 3c 0e fe 5d 3b bb 72 22 bd 4a ae 1d bd
       0.012668054 0.0033873352 -0.039660197 -0.038496293
000100 32 02 5f bc 17 f6 cd 3c f3 fc 5b bc 0a 1d bd 3a
       -0.013611363 0.025141759 -0.013427007 0.001442821
000110 27 1d 6f ba e1 a3 78 3c aa ab 31 bc 29 c8 1c 3d
       -0.00091214705 0.0151757905 -0.010844151 0.038276825
000120 1e d3 44 3d 85 2f f1 bc 07 7d 1c 3c b0 c7 f3 3b
       0.0480529 -0.029441604 0.009551293 0.007439576
000130 30 a8 99 bc cf 41 a2 bc e0 b4 b0 bd bb dc 56 3a
       -0.018756956 -0.01980677 -0.08628249 0.00081963436
000140 74 8a 28 3a c8 35 6f bc ee 47 59 bd 2d c0 25 bd
       0.00064293225 -0.014600225 -0.053047113 -0.040466476
000150 3c 0a ab 3d ef 56 4e 3c 16 fb 9c bc 0e dc 2a 3d
       0.083515614 0.012593969 -0.019162696 0.041713767
000160 92 ad 25 3d 7a eb 6e bc da 37 76 bd 0e 9a 9a 3b
       0.040448733 -0.014582509 -0.060111858 0.004718072
000170 65 f3 b4 bd 81 e6 49 bd 60 ad 1e bd 4c 19 bd bc
       -0.08835486 -0.04929209 -0.038739562 -0.023083352
000180 ae 47 77 bb 69 e2 65 bc 0c 34 ce bc 25 11 8f bc
       -0.0037731933 -0.014031031 -0.025171302 -0.01746423
000190 05 8f b2 3c 1e 9e 99 bd ed 89 56 3b 61 5b a4 3c
       0.021796713 -0.075008616 0.0032736019 0.020063104
0001a0 7d 31 69 bd 30 ee ea 3c 34 ca 16 3c bd 11 d2 bc
       -0.05693196 0.02867803 0.009203482 -0.025643224
0001b0 49 c9 2a bc 39 52 88 3d ea 7b c8 bb a1 c4 47 3c
       -0.010423967 0.06656308 -0.0061182873 0.012192876
0001c0 83 48 0e bd c2 6f 0c bc 02 eb 18 bd 9c 69 bd 3c
       -0.03473712 -0.008571567 -0.037333496 0.023121648
0001d0 1a af 10 3d 1f 5b 23 bc 35 6b b4 3a fc 27 48 3c
       0.03532324 -0.009970455 0.001376486 0.012216564
0001e0 f0 00 0f bd e0 eb c7 bc 71 a9 66 3d 96 23 e5 bc
       -0.034913003 -0.024404466 0.056313936 -0.02797107
0001f0 16 c6 ae bc 9d ac 09 bc 36 b0 26 3c e5 64 a2 3b
       -0.02133469 -0.008402971 0.010173848 0.004955875
000200 9d fa d7 bb 57 ce 80 bd 17 a3 cd bc 89 09 f3 bc
       -0.0065911547 -0.06289356 -0.025102181 -0.029667633
000210 f3 3d 99 bb 95 86 dc bb e2 d2 7c bc d7 cd 0a 3b
       -0.0046765744 -0.0067299106 -0.015431138 0.002117982
000220 9e 96 29 3c 6b d4 ba 3c 81 dc 89 3a 7b 10 78 3d
       0.010350851 0.022806367 0.0010517986 0.060562592
000230 45 df 00 3d 5d 9e df bc 44 9b 62 3a 47 2c b2 bc
       0.031462926 -0.027297193 0.0008644352 -0.021749629
000240 92 4a f8 bb 8e 37 bf 3a 52 90 62 bd 87 de 8d bc
       -0.007577249 0.00145887 -0.055313416 -0.017318023
000250 6b c3 1e bd 57 fd 8f bc 6f 90 01 3d b8 e9 f2 bc
       -0.038760584 -0.017576857 0.031631883 -0.029652461
000260 11 6c e9 3a 1d 86 26 bd d7 e7 2d bb 01 fe ca ba
       0.0017808696 -0.040655244 -0.0026535892 -0.0015487076
000270 d7 20 01 bd 14 81 ee 3c 66 be d4 3c 3e 1c d8 bc
       -0.03152546 0.029114284 0.025969695 -0.026380654
000280 c6 f5 09 bd bf 36 4d 3c c2 fe 30 3d eb 8e 3d 3d
       -0.033681653 0.0125252595 0.043211706 0.046278875
000290 9a 38 1c 3d 87 e8 47 bc 93 ca 3d bc d4 63 91 bc
       0.038139917 -0.012201435 -0.011583942 -0.017747797
0002a0 13 2b 7e 3b 58 b5 49 3c 74 72 c0 3c a6 d3 aa 3b
       0.0038782998 0.012311302 0.023492076 0.0052132187
0002b0 c7 7d 4e 3d be 27 86 3c 42 78 22 3c bb 1d dd bc
       0.05041292 0.016376372 0.009916367 -0.026991716
0002c0 8d 62 02 3d 41 12 4b 3d 7e 18 df 3c 5f 5a a4 3c
       0.031832267 0.049577955 0.027233358 0.020062624
0002d0 f7 2b 30 3c 60 aa fc 3c ae 4f 64 3d bf 2e e0 3c
       0.01075267 0.03084296 0.05574005 0.02736604
0002e0 d7 7c 91 3d ae cf ed bc 74 7a fc bc 4a f0 39 bd
       0.071038894 -0.029029693 -0.030820109 -0.045395173
0002f0 2e 8d a3 3c c2 d0 00 bb cf f5 38 3c 8b 8d f5 3c
       0.01996478 -0.001965568 0.011289074 0.02997472
000300 8e 3d 62 bc f6 80 f9 3a ff 8a 25 3c ce 1d 71 3d
       -0.013808621 0.0019035626 0.01010394 0.058866315
000310 00 5b 8d 3c e6 07 f3 bc 6c 4f 6c 3c b8 2f fd bc
       0.017255306 -0.029666852 0.0144232325 -0.030906543
000320 a5 18 1d 3c cf 19 a7 3b fc 0e bb 3c 3b aa 76 bd
       0.009588395 0.005099512 0.022834294 -0.06022094
000330 21 37 9b bc bf 38 7c 3c 98 7c 8c bc bd f1 f0 ba
       -0.018947186 0.015394389 -0.017149255 -0.001838259
000340 9a 99 31 bc be 07 0d bd cd 4b 14 bd 10 2e 08 bd
       -0.010839844 -0.03443121 -0.0362051 -0.033247054
000350 1b 57 f5 bc ba 52 3a bc 42 99 ea 3b df 89 7f 3d
       -0.029948762 -0.011372263 0.007159383 0.062387343
000360 b2 03 2f ba c6 d6 0c 3c 2b 39 18 bd f0 d8 34 bd
       -0.0006676271 0.008596128 -0.037163895 -0.0441522
000370 3a d1 3b bc 32 42 25 3c 79 66 06 bd ab e3 02 3d
       -0.011463458 0.010086583 -0.03281257 0.031955402
000380 4f 40 24 bd 13 6e 49 3d 41 c5 19 bc 15 c3 02 3d
       -0.040100392 0.04917724 -0.009385408 0.031924326
000390 38 fb db ba 71 74 df bc a8 d1 0b bc 20 18 ae bd
       -0.0016783243 -0.027277203 -0.008533873 -0.08500695
0003a0 1a 1c 17 bc 5d 3c 62 3d d5 12 3a bb ac ee b4 bd
       -0.0092230085 0.05523335 -0.0028392572 -0.088345855
0003b0 3f 43 21 bd cd 6d 33 bc 9a cc cd bc 69 cb de 3c
       -0.03937077 -0.0109514715 -0.025121976 0.027196603
0003c0 9c 3e a7 bb 5a 1e 0d 3d e4 a6 e6 3c 96 5f a4 3c
       -0.005103899 0.034452774 0.028155752 0.02006511
0003d0 25 32 35 3c 39 d7 9b 3c 19 69 ff 3c b0 d1 03 3d
       0.011059319 0.019023525 0.031178044 0.032182395
0003e0 e0 69 3e bc 4e 21 7e bc ee e9 71 bc 17 37 04 3c
       -0.011621922 -0.01551087 -0.014765246 0.008069775
0003f0 76 68 5d bd ce 77 77 3b 13 40 e8 bb bf 68 45 3d
       -0.0540547 0.0037760618 -0.0070877164 0.048195597

bias f4 [768]
000000 1a 38 02 bd 3a 2c 9d bc 06 6c 0d bd a9 80 dd bc
       -0.031791784 -0.019186128 -0.034526847 -0.027038889
000010 4a f7 19 bd 0c 04 8e bc c8 ba 16 bd 4a df db bc
       -0.03758935 -0.017335914 -0.036799222 -0.026839871
000020 8e d2 f2 bc aa c1 6e bc 4b 51 b0 bc 8d 72 c1 bc
       -0.029641416 -0.01457254 -0.021523139 -0.023614192
000030 4b a9 27 bd ed cb 2a bd 45 f0 66 bc 31 b5 13 bd
       -0.040932935 -0.041698385 -0.014095371 -0.03606147
000040 fc ac c7 bc ba fa c6 bc ac 94 fc bc 89 3f 06 bd
       -0.024374478 -0.024289478 -0.030832611 -0.032775436
000050 2d af b3 bc ae af 45 bd ab 93 de bc bd 3e 67 bc
       -0.021934116 -0.048263244 -0.027170023 -0.014114079
000060 55 61 0f bd d5 29 b5 bc 51 28 a5 bc 9f 8e 01 bd
       -0.035004932 -0.022114674 -0.020160826 -0.031630155
000070 d0 c2 da bc 0f c6 f1 bc 51 43 dd bc 0e 79 2a bd
       -0.026704222 -0.029513387 -0.027009638 -0.041619353
000080 53 4b 99 bc 48 6d be bc 95 d7 84 bc c1 a3 0e bd
       -0.018712675 -0.023245469 -0.016216079 -0.034824137
000090 b5 bb ce bc 74 a9 9e bc 97 b2 c9 bc 1e 10 11 bd
       -0.02523599 -0.01936791 -0.024621291 -0.03541576
0000a0 0d cd 84 bc e8 44 2f bd af 4e 35 bd 2f e1 d8 bc
       -0.016211057 -0.042790323 -0.04426449 -0.026474563
0000b0 ac 7d d8 bc bc d9 d8 bc 5e d3 dd bc 4c c4 e4 bc
       -0.026427113 -0.026471011 -0.027078327 -0.027925633
0000c0 71 92 29 bd ba fa 0a bd f3 fd be bc 68 82 02 bd
       -0.041399423 -0.033930518 -0.023314452 -0.031862646
0000d0 b8 49 a1 bc 96 98 1e bd 3f 5c 23 bd da b3 d1 bc
       -0.019688472 -0.038719736 -0.039882895 -0.025598455
0000e0 40 ba b6 bc 3d 8c 0e bd e3 e9 00 bd 9e ab ca bc
       -0.022305608 -0.03480171 -0.03147305 -0.024740037
0000f0 b5 88 cc bc c8 4c 37 bd a3 f6 cc bc 9b d5 16 bd
       -0.02496753 -0.04475096 -0.02501995 -0.036824804
000100 c9 67 1d bd d1 74 9d bc a5 a3 e8 bc 99 c8 10 bd
       -0.038429055 -0.019220741 -0.028398344 -0.035347555
000110 af 05 eb bc 02 05 10 bd 37 97 b2 bc 08 dc 99 bc
       -0.028689234 -0.035161026 -0.02180062 -0.018781677
000120 a2 1f 2f bc b2 8b b0 bc 9f ae 00 bd 5a 85 b6 bc
       -0.010688694 -0.021550987 -0.03141653 -0.022280384
000130 ab 40 c0 bc 5c df 15 bd 50 c6 99 bc 58 dd 94 bc
       -0.023468336 -0.036589965 -0.01877132 -0.018171951
000140 2d 65 cf bc 4f 43 b2 bc c4 99 04 bd 17 5f df bc
       -0.025316799 -0.02176061 -0.032373205 -0.027267022
000150 8e 4e 06 bd ca 5f f4 bc 03 67 cd bc ba 17 fa bc
       -0.03278976 -0.029830832 -0.025073534 -0.030528892
000160 09 04 ab bc bc 76 01 bd 33 1e 06 bd a9 7e 0f bd
       -0.020875948 -0.031607375 -0.032743644 -0.035032902
000170 3c d6 45 bd 19 af d0 bc 02 9b 8c bc 43 46 ba bc
       -0.048300013 -0.025474118 -0.017163757 -0.022738582
000180 9d 50 dc bc 02 a0 8c bc 60 94 06 bd 50 46 ba bc
       -0.026893908 -0.017166141 -0.032856345 -0.022738606
000190 02 52 be bc 14 7c 07 bd 6a 3c d9 bc ed 43 ef bc
       -0.023232464 -0.033077314 -0.026518065 -0.029207194
0001a0 8d e3 27 bd 47 d3 f3 bc 9a 8a 06 bd 4b e4 32 bd
       -0.040988494 -0.02976383 -0.032847025 -0.04367475
0001b0 d1 7a d5 bc 97 eb b5 bc 28 82 04 bd 66 3c 11 bd
       -0.02605954 -0.022207065 -0.03235069 -0.03545799
0001c0 33 2b d1 bc a0 00 22 bd 68 6a c4 bc 8a 9d d7 bc
       -0.025533294 -0.039551377 -0.02397652 -0.026320238
0001d0 67 7d 48 bd 9b 6f b7 bc 40 f3 c3 bc 12 74 6f bc
       -0.048947718 -0.022392085 -0.023919702 -0.014615076
0001e0 f8 26 f7 bc 82 12 03 bd fb 39 3d bd 4b 0b fe bc
       -0.030169949 -0.032000072 -0.046197873 -0.031011244
0001f0 1d 40 00 bd b9 8f 31 bd 6d 1d dd bc 1c 60 10 bc
       -0.031311143 -0.043349955 -0.02699157 -0.008811977
000200 9f 54 99 bc e1 54 fe bc 78 78 8e bc d1 4d 00 bd
       -0.018717108 -0.031046333 -0.017391428 -0.03132421
000210 a5 99 cd bc fb 59 95 bc b3 9c ab bc a2 8c 9d bc
       -0.025097677 -0.018231383 -0.020948743 -0.019232098
000220 ea c5 e6 bc 93 4a 16 bd 49 f3 0b bd 8d 91 e5 bc
       -0.028170545 -0.036692213 -0.03416756 -0.028023506
000230 5b f2 0f bd ab 45 bf bc 93 5f 09 bd cc 58 d6 bc
       -0.035143238 -0.02334865 -0.033538412 -0.026165389
000240 87 5c a5 bc 2e f5 ce bc 2a 04 0d bd f0 8a e7 bc
       -0.020185722 -0.025263395 -0.0344278 -0.028264493
000250 16 22 24 bc b5 07 cc bc 24 d9 e1 bc 77 cb 08 bd
       -0.010017892 -0.024906019 -0.027569361 -0.033397164
000260 78 32 f3 bc 02 f4 05 bd c6 b0 98 bc 7a b0 b5 bc
       -0.029687151 -0.032703407 -0.01863898 -0.022178877
000270 a9 04 22 bd e6 02 f3 bc f0 1b e8 bc 83 91 e7 bc
       -0.039555226 -0.029664468 -0.028333634 -0.028267628
000280 38 46 d0 bc ea da c9 bc 8b 57 cd bc bc 5a 00 bd
       -0.025424108 -0.02464052 -0.025066158 -0.03133653
000290 57 38 e4 bc 6a 97 20 bd e9 01 d8 bc 93 d9 07 bd
       -0.027858896 -0.0392069 -0.026368098 -0.03316648
0002a0 db ee b2 bc 9d f7 b7 bc 77 c7 d3 bc e2 88 2c bd
       -0.02184241 -0.022456938 -0.025851948 -0.04212273
0002b0 16 b5 a2 bc 52 e3 16 bd 76 45 e6 bc 22 2a e1 bc
       -0.01986174 -0.036837883 -0.028109293 -0.02748591
0002c0 0a a0 96 bc 05 65 1b bd 83 f3 e0 bc a6 df 1b bd
       -0.01838686 -0.037938137 -0.027459865 -0.038055085
0002d0 45 14 08 bd ec 8b ef bc fb 19 e9 bc 48 7c 06 bd
       -0.033222456 -0.029241525 -0.028454771 -0.032833368
0002e0 9d bd 88 bc 92 1d e6 bc 6b a3 93 bc a9 d0 f8 bc
       -0.016691977 -0.028090272 -0.01802226 -0.030372934
0002f0 f3 88 c0 bc 6a 6d 18 bd 12 6c 1d bd 16 de ef bc
       -0.023502802 -0.03721372 -0.038433142 -0.029280704
000300 a6 06 1e bd a2 b4 54 bc bc e9 25 bd 3a db c7 bc
       -0.03858056 -0.012982519 -0.04050611 -0.024396528
000310 31 42 77 bc 28 6f 21 bd 33 7f 93 bc 6f 4b db bc
       -0.015091465 -0.039412647 -0.01800499 -0.026769368
000320 f4 45 13 bd 26 0b a9 bc cc f8 b7 bc d9 20 33 bd
       -0.035955384 -0.020635199 -0.022457503 -0.043732498
000330 b4 43 9a bc 71 02 ec bc 35 5d 27 bd ec 2d 0a bd
       -0.018831111 -0.028809758 -0.040860374 -0.0337352
000340 21 b6 68 bc 6d 5f 0a bd 32 14 16 bd 3a a4 0b bd
       -0.014203579 -0.03378241 -0.036640354 -0.034092166
000350 9e e8 36 bd ce 12 af bc 41 1c 00 bd a1 20 9a bc
       -0.044655435 -0.021371271 -0.031276945 -0.018814387
000360 30 e0 0f be f5 e3 c1 bc dd 3a 9c bc 52 8c 93 bc
       -0.14050364 -0.023668269 -0.019071037 -0.018011246
000370 84 17 d4 bc a0 2c cd bc 5b 76 de bc 9d 66 01 bd
       -0.02589012 -0.025045693 -0.027156046 -0.031592
000380 58 6a 52 bc aa b7 51 bd a9 a8 0b bd dd 55 02 bd
       -0.012842737 -0.051200546 -0.034096394 -0.031820167
000390 89 00 e6 bc 19 95 c9 bc b1 53 18 bd 61 6b c3 bc
       -0.028076427 -0.024607228 -0.03718919 -0.023854913
0003a0 5f 3a 09 bd f7 c2 df bc 44 93 db bc e4 7e a9 bc
       -0.033502933 -0.027314646 -0.02680362 -0.020690389
0003b0 ea 5b c4 bc 5c 04 97 bc 92 43 2c bd e4 0f e9 bc
       -0.02396961 -0.018434696 -0.042056628 -0.02844996
0003c0 86 f2 db bc df 7e db bc 80 dc 11 bd b5 36 b3 bc
       -0.026849043 -0.026793895 -0.035610676 -0.021876672
0003d0 b6 65 4d bd 37 7c 84 bc 5b cd 9e bc 2e 9f 0e bd
       -0.050145827 -0.016172512 -0.01938503 -0.034819774
0003e0 fc d1 76 bc 13 bd eb bc ce 13 1d bd d4 f0 ca bc
       -0.015064713 -0.028776681 -0.038348965 -0.024773039
0003f0 8b a4 01 bd ef a4 e7 bc 38 56 0f bd b4 a5 aa bc
       -0.03165106 -0.028276889 -0.034994334 -0.020830967
